pythonAutoGUI/hand-gesture-recognition-mediapipe-main (1)/hand-gesture-recognition-mediapipe-main/model/keypoint_classifier/keypoint_classifier.tflite (tflite, 6660 bytes, 6 tensors)

sequential_2/dense_8/BiasAdd/ReadVariableOp f4 [6]
0	0xbe8b097f	-0.27155682
1	0xbefc6057	-0.4929225
2	0x3f265c6f	0.6498479
3	0x3e944dbc	0.28965557
4	0x3e136d5b	0.14397185
5	0x3be9a442	0.0071301768

sequential_2/dense_7/BiasAdd/ReadVariableOp f4 [10]
0	0xbec1aae3	-0.3782569
1	0x3c9e4950	0.019322067
2	0x3f2c98d6	0.6742071
3	0x3e9de493	0.3083845
4	0x3ea9f53c	0.3319491
5	0xbb56be65	-0.0032767293
6	0x3f501864	0.8128722
7	0xbe689e05	-0.2271653
8	0x3eca29d7	0.39485046
9	0x3f14c1dc	0.58108306

sequential_2/dense_6/BiasAdd/ReadVariableOp f4 [20]
0	0xbf6ee62b	-0.9331996
1	0xbf1c46be	-0.61045444
2	0xbf1376a8	-0.5760293
3	0xbf203f70	-0.625968
4	0xbf743c8c	-0.9540489
5	0xbf165fd9	-0.5874
6	0xbf053c9b	-0.520456
7	0xbec27d57	-0.37986252
8	0xbf5f4a2c	-0.8722255
9	0x3e646581	0.22304346
10	0xbf0115f9	-0.5042415
11	0xbebd2322	-0.36940867
12	0xbe967810	-0.29388475
13	0xbef81e74	-0.48460734
14	0xbf07ca86	-0.530434
15	0xbf2648f4	-0.6495507
16	0xbf420e2a	-0.7580286
17	0xbf3030c4	-0.6882441
18	0x3f45cd81	0.772667
19	0xbe8a17e0	-0.2697134

sequential_2/dense_6/MatMul f4 [20, 42]
0	0xbe7d3ad2	-0.2472947
1	0xbe031f1f	-0.1280484
2	0x3f146a32	0.5797454
3	0x3d67bc4c	0.05657606
4	0x3e0d8fb3	0.13824348
5	0xbe79a564	-0.24379498
6	0x3d3e9309	0.046526942
7	0xbf212f7c	-0.6296308
8	0xbde9e2ff	-0.11420249
9	0xbf056458	-0.5210624
10	0x3dd3af6d	0.10336194
11	0x3e7688ca	0.24075618
12	0x3e1030cb	0.14081113
13	0x3c6ff0b5	0.014644791
14	0xbde06557	-0.10956829
15	0x3dc5db33	0.096609496
16	0xbe5d6f75	-0.21624549
17	0x3e8688cf	0.26276252
18	0xbca24bc7	-0.019811524
19	0x3e469afa	0.19395056
20	0x3e388862	0.18020776
21	0x3de72426	0.11286192
22	0x3f0ad6c9	0.54233986
23	0x3cb74adb	0.022374561
24	0x3f14e8b5	0.5816758
25	0x3e01dc9a	0.12681809
26	0x3ad40ed8	0.001617874
27	0x3e01aee2	0.12664369
28	0x3e0cf6b2	0.13765982
29	0xbdf90cad	-0.12160621
30	0x3f0f44bb	0.5596425
31	0xbead8160	-0.33887768
32	0x3f2f50ca	0.6848265
33	0xbe9a7e90	-0.30174685
34	0x3c426a4d	0.011866164
35	0x3e44b9fc	0.19211572
36	0x3ddeb8bc	0.10875079
37	0x3dbcfe11	0.09228147
38	0x3e696d32	0.22795561
39	0xbcbf93d8	-0.023385927
40	0x3e87fba7	0.26559183
41	0xbe0eace9	-0.13933147
42	0xbe91f955	-0.28510538
43	0x3da543a0	0.08069539
44	0xbe16edee	-0.147392
45	0x3e915cc4	0.28391087
46	0xbe0039fc	-0.1252212
47	0xbdac2dc7	-0.08407169
48	0x3d25dd94	0.040494516
49	0xbe483263	-0.19550471
50	0x3de4fe43	0.11181309
51	0xbe103828	-0.14083922
52	0xbf4df9b9	-0.8045917
53	0xbda7cefa	-0.081937745
54	0xbe42efdf	-0.19036816
55	0xbe915639	-0.28386095
56	0x3dcc6ee0	0.09982085
57	0xbd856805	-0.06513981
58	0x3e385579	0.18001355
59	0xbcfc80cd	-0.030823136
60	0xbf5fdefd	-0.8744963
61	0xbe339224	-0.17536217
62	0x3d06acd2	0.032879658
63	0xbce525b2	-0.027972076
64	0x3e9774a9	0.29581192
65	0x3e08b0a7	0.13348638
66	0x3e9ad4f8	0.30240607
67	0x3e1b348c	0.15156764
68	0xbf8058f1	-1.0027143
69	0xbe4e5004	-0.20147711
70	0xbdc476d1	-0.09592975
71	0xbd540531	-0.051762763
72	0x3e9c85e1	0.30570891
73	0x3d9fbd2a	0.07799752
74	0x3e9bbfc8	0.30419755
75	0x3dfa36c7	0.12217479
76	0xbf52683e	-0.8219031
77	0xbe95a9be	-0.29231066
78	0xbd84fd29	-0.06493599
79	0xbd9bed75	-0.07613651
80	0x3e36696f	0.17813657
81	0x3d74f753	0.05980618
82	0x3e2f5c53	0.17125063
83	0x3db37d8b	0.0876418
84	0xbe9e5694	-0.3092543
85	0x3dcdcdfc	0.10049054
86	0xbe813236	-0.2523362
87	0x3d0970e1	0.033554915
88	0xbd8b00c6	-0.06787257
89	0xbe3bd8bf	-0.18344401
90	0xbe1ea675	-0.15493186
91	0xbe98f307	-0.29872915
92	0xbeac4b24	-0.33651078
93	0xbe8679c2	-0.2626477
94	0xbb8cd6ce	-0.0042980677
95	0x3e7fe3ec	0.24989289
96	0xbd1d62da	-0.03842435
97	0xbdb18dce	-0.08669625
98	0x3ba1b4bf	0.0049348767
99	0xbe1a190a	-0.15048614
100	0xbcea1ce2	-0.028578226
101	0xbde90988	-0.11378771
102	0xbd680dbb	-0.05665372
103	0x3e869c74	0.2629124
104	0xbcecae9e	-0.028891858
105	0xbeaf309b	-0.3421677
106	0x3b71af51	0.0036878178
107	0xbceaf748	-0.028682366
108	0x3de9f017	0.11422747
109	0x3ee5aa87	0.44856665
110	0xbe0a6333	-0.13514404
111	0x3dc5bb95	0.09654919
112	0xbd834946	-0.0641046
113	0xbe7e5b28	-0.24839461
114	0x3d9f5a02	0.077808395
115	0x3e826327	0.25466272
116	0x3eec444f	0.46145865
117	0x3f9a80a3	1.2070507
118	0xbe21e03d	-0.15808196
119	0xbd631c44	-0.055446878
120	0xbdbf8305	-0.09351162
121	0xbe91895a	-0.28425103
122	0x3cdf073d	0.027225131
123	0x3e6abaed	0.22922869
124	0x3e7a8a64	0.24466854
125	0x3f8cc8d7	1.0998791
126	0x3d429490	0.04750496
127	0x3d050dd8	0.032483906
128	0xbd7ee22b	-0.06222741
129	0x3f03d23d	0.51492673
130	0x3c3ebfc4	0.0116424
131	0x3e074624	0.1321035
132	0xbe2be601	-0.16786958
133	0x3cc6dd5e	0.024275478
134	0xbed39e6c	-0.41331804
135	0x3cc2a151	0.023758562
136	0xbe03e188	-0.12879002
137	0x3dae86e9	0.08521826
138	0x3d4a3a86	0.04937222
139	0x3d9c7762	0.07639958
140	0x3dd40c60	0.10353923
141	0x3e8a1742	0.2697087
142	0x3df3d560	0.119059324
143	0x3e5c8910	0.2153666
144	0xbc3b9ce5	-0.011450981
145	0xbd33384e	-0.04375487
146	0x3d907394	0.07053295
147	0xbda78741	-0.081800945
148	0xb99f6bb9	-0.00030407103
149	0xbec95865	-0.39325252
150	0xbe21c4aa	-0.15797678
151	0xbf26711a	-0.6501633
152	0xbda9b8a4	-0.082871705
153	0xbd4d010c	-0.050049827
154	0x3d25d2e8	0.04048434
155	0xbd7be97a	-0.061501957
156	0x3e817a61	0.2528868
157	0xbef3eabc	-0.47640026
158	0xbe509bc3	-0.20371918
159	0xbf32e59c	-0.69881606
160	0xbda1c8fb	-0.07899662
161	0xbdcb7727	-0.09934836
162	0x3d5259a8	0.051355034
163	0xbd9fa465	-0.07795028
164	0x3da97626	0.08274488
165	0xbf07c714	-0.53038144
166	0xbe0cd5a8	-0.13753378
167	0xbf449a19	-0.76797634
168	0x3d8a8958	0.067644775
169	0x3e49b6e8	0.1969868
170	0x3e2656a1	0.16243984
171	0xbf1332a1	-0.5749913
172	0x3db004e7	0.08594685
173	0xbeca35ae	-0.3949408
174	0x3d48a5f3	0.048986387
175	0xbf02f29f	-0.5115146
176	0xbd61b3e1	-0.055103187
177	0xbe0a59a4	-0.13510758
178	0x3bd0b954	0.006369749
179	0xbe8bb716	-0.2728812
180	0x3d7bef47	0.06150749
181	0xbd9383a8	-0.07202846
182	0xbcd51874	-0.026012637
183	0x3daac465	0.083382405
184	0xbd85340c	-0.06504068
185	0x3da78bcd	0.08180962
186	0x3e5d233f	0.21595477
187	0xbe5ae329	-0.21375717
188	0x3d1cbc2c	0.038265392
189	0xbe0475c3	-0.12935548
190	0xbd5c83a0	-0.053836465
191	0x3daf7573	0.085673235
192	0xbdd3e230	-0.10345876
193	0x3e04609e	0.12927482
194	0x3dc276c3	0.09495308
195	0xbe41a11a	-0.18909112
196	0x3c22971d	0.0099237235
197	0xbe28920b	-0.16461961
198	0xbcc188f8	-0.023624882
199	0x3d987e53	0.074459694
200	0xbcaee216	-0.02134804
201	0x3e074bf0	0.13212562
202	0x3d44e311	0.04806811
203	0xbe791755	-0.24325307
204	0x3d1c60fe	0.038178436
205	0xbeb47db1	-0.35252145
206	0xbc4c4523	-0.012467655
207	0x3c9627a7	0.018329455
208	0x3cce8e49	0.025214331
209	0x3e015d88	0.12633336
210	0xbd7a8fd0	-0.061172307
211	0x3e6fafe0	0.23406935
212	0xbdb9cd5c	-0.09072372
213	0x3f38e215	0.72219974
214	0x3ace68e8	0.0015747817
215	0x3ec435d9	0.38322333
216	0x3e06b8a7	0.13156377
217	0x3e8e2d9a	0.27769166
218	0x3e8244d9	0.25443152
219	0x3e541949	0.2071277
220	0x3ad8abda	0.0016530708
221	0x3b202621	0.002443679
222	0xbd298feb	-0.041397016
223	0x3ccdd641	0.025126578
224	0x3d020a06	0.03174784
225	0x3d27488e	0.040840678
226	0x3cc45b8e	0.023969438
227	0x3cacdca9	0.021101313
228	0x3dd605b9	0.1045031
229	0xbd1ea6b8	-0.038733214
230	0x3d145b3f	0.03621983
231	0xbcce39d4	-0.025174059
232	0xbe371d20	-0.17882204
233	0x3c1c44a7	0.009537852
234	0xbed56c71	-0.41684297
235	0xbf07ebd1	-0.530942
236	0x3e3b3c3c	0.18284696
237	0xbc74bbb4	-0.01493733
238	0x3cfadd23	0.030623024
239	0xbc43e0d7	-0.011955461
240	0xbeb774bf	-0.35831258
241	0xbe9b48ff	-0.3032913
242	0xbf051aa9	-0.51993805
243	0xbf01bd63	-0.50679606
244	0x3e6eb5f6	0.233116
245	0xbdb59bbf	-0.08867597
246	0x3d50b424	0.050953045
247	0xbd402a0d	-0.046915103
248	0xbe428e29	-0.18999542
249	0xbe52684d	-0.205476
250	0xbf0c36f0	-0.5477133
251	0xbf076528	-0.5288873
252	0xbd35ad50	-0.044354737
253	0x3e0caef4	0.13738614
254	0xbf0d7887	-0.55262035
255	0x3e8282e0	0.25490475

sequential_2/dense_7/MatMul f4 [10, 20]
0	0x3f19a017	0.600099
1	0xbea1587b	-0.31512818
2	0x3f74cfaf	0.956294
3	0x3e3399fd	0.1753921
4	0x3e4eff19	0.202145
5	0x3e2428f3	0.16031246
6	0x3da6285f	0.08113169
7	0x3d9c0570	0.076182246
8	0x3f19c4bf	0.60065836
9	0x3f0eb7bd	0.5574911
10	0xbe8976c6	-0.2684843
11	0x3dbf91b4	0.093539625
12	0x3e9e8c44	0.3096639
13	0xbe885ffa	-0.26635724
14	0x3e8fbcd1	0.28073743
15	0xbf826666	-1.01875
16	0x3f1db3c4	0.61602426
17	0xbe74977a	-0.23885909
18	0x3f078a9b	0.5294587
19	0x3f8bd3da	1.0924027
20	0x3eecd85c	0.4625882
21	0x3cea9275	0.02863429
22	0x3e9261df	0.28590295
23	0x3f552566	0.8326019
24	0x3f0fc181	0.5615464
25	0x3fac0205	1.3438116
26	0x3e292c5e	0.16520831
27	0x3f79bb10	0.9755106
28	0xbd72a30e	-0.059237532
29	0xbc81bb69	-0.015836434
30	0x3f411988	0.7542958
31	0x3bc5a302	0.006031395
32	0x3f4d0462	0.8008481
33	0x3e3e981b	0.18612711
34	0x3f0c8ecd	0.54905397
35	0x3f329648	0.6976056
36	0x3d4e43d6	0.050357662
37	0xbe302a4c	-0.17203635
38	0xbc9b129b	-0.01892977
39	0xbdb6cbde	-0.08925603
40	0xbe2130f2	-0.15741327
41	0x3ec3c548	0.3823645
42	0xbe8c530d	-0.27407113
43	0x3f0e94b3	0.55695647
44	0x3f19c32f	0.6006345
45	0xbe0992b7	-0.13434874
46	0x3f726bc8	0.9469571
47	0x3ed956e1	0.42449096
48	0x3ec163a7	0.3777134
49	0x3e64b5ec	0.22335023
50	0xbf596e6f	-0.84934133
51	0xbdacfa42	-0.084461704
52	0xbe37d821	-0.1795354
53	0x3f1da478	0.61579084
54	0xbf3e895e	-0.74428356
55	0x3d099518	0.033589453
56	0x3eb5fa65	0.35542598
57	0xbe81ffe9	-0.25390556
58	0x3e374aab	0.17899577
59	0xbe734dc8	-0.2376014
60	0x3ead9fc9	0.3391097
61	0xbf1dc731	-0.61632067
62	0x3cd0ab22	0.025472227
63	0xbe69b96c	-0.22824639
64	0x3efad7c8	0.48992753
65	0xbeaa7900	-0.3329544
66	0x3e54438b	0.2072889
67	0xbe802349	-0.2502692
68	0xbf47df52	-0.78075135
69	0xbeba596e	-0.36396354
70	0xbe5dbd54	-0.21654254
71	0xbea790d3	-0.3272768
72	0xbf1208dd	-0.57044774
73	0x3f7ee307	0.99565166
74	0xbe01ebcc	-0.12687606
75	0x3ec58676	0.38579148
76	0x3fa86619	1.3156158
77	0x3f15fb37	0.5858645
78	0x3dd1905f	0.10232615
79	0x3e718de5	0.23589285
80	0x3e7c5e9e	0.24645469
81	0x3d20f3e2	0.039295085
82	0x3f20b49b	0.6277558
83	0x3dd2c338	0.10291141
84	0xbeb76738	-0.35820937
85	0xbf0ef551	-0.55843073
86	0x3cbd70f8	0.023125157
87	0x3ce42719	0.027850674
88	0x3e37dea2	0.17956021
89	0x3efe9950	0.49726343
90	0x3ed3a937	0.41340038
91	0x3eaa25b4	0.3323189
92	0x3ed74f7e	0.42052835
93	0xbe6226b1	-0.22085072
94	0x3ee598a8	0.4484303
95	0xbd69a061	-0.057037715
96	0xbe5a8d6e	-0.21343014
97	0xbd7b40ad	-0.061340977
98	0x3d3f8dec	0.046766207
99	0x3f65170d	0.894883
100	0xbd4c29e1	-0.049844626
101	0x3c1f985a	0.009740913
102	0x3e08202a	0.1329352
103	0xbe9de9e8	-0.3084252
104	0xbfac3fa0	-1.3456917
105	0x3ead7c03	0.33883676
106	0x3c33f915	0.010984679
107	0x3e13001b	0.14355509
108	0x3f834bd0	1.0257511
109	0xbb231898	-0.0024886485
110	0x3cd45202	0.02591801
111	0xbd718544	-0.058964983
112	0x3f295095	0.66138583
113	0x3ee9379e	0.45550245
114	0x3d525ca2	0.051357873
115	0x3e0a24d2	0.13490608
116	0xbec34247	-0.38136503
117	0x3ead0dd5	0.33799616
118	0xbca11829	-0.01966484
119	0x3db625b5	0.08893911
120	0x3d4e1458	0.05031237
121	0xbe069916	-0.13144335
122	0x3e8f4ce5	0.27988353
123	0x3da8cc16	0.08242051
124	0xbf464072	-0.77442086
125	0x3dfb2627	0.12263136
126	0x3ea73e48	0.32664704
127	0x3ec7545e	0.38931555
128	0xbe9c8873	-0.30572852
129	0x3e8ce54d	0.27518693
130	0xbda5a460	-0.08087993
131	0x3fb7dd1c	1.4364352
132	0xbd4351d7	-0.04768547
133	0xbf0c4b24	-0.54802155
134	0xbeae21db	-0.34010205
135	0x3f0d1cf2	0.5512229
136	0xbe96cac2	-0.29451567
137	0xbd52e699	-0.051489446
138	0x3effddad	0.49973813
139	0x3e20c4e0	0.15700102
140	0xbe09980c	-0.13436908
141	0x3cff8ac4	0.031194098
142	0x3f93efcd	1.1557556
143	0x3dcb7ea1	0.09936262
144	0xbe64e454	-0.22352725
145	0x3dbc58dc	0.09196636
146	0x3e132443	0.14369301
147	0x3ccc409c	0.024933152
148	0xbf1bba26	-0.60830915
149	0x3df461a2	0.119326845
150	0x3f07b38f	0.5300836
151	0x3d753bfe	0.059871666
152	0xbda0b5b4	-0.07847157
153	0x3e9c3879	0.30511835
154	0x3f2723d3	0.6528904
155	0x3f953c63	1.1659054
156	0x3d836331	0.06415404
157	0xbea1bbc6	-0.31588572
158	0x3f08aead	0.53391534
159	0x3efded79	0.4959524
160	0xbc631656	-0.013860306
161	0x3e18ecab	0.14934032
162	0xbe86b9c6	-0.2631361
163	0x3de10e86	0.10989098
164	0x3ee2c3b8	0.44289947
165	0xbd9d4854	-0.07679811
166	0x3f696713	0.91172904
167	0x3e99ad97	0.3001525
168	0xbe937e34	-0.28807223
169	0x3f54067b	0.8282239
170	0xbe2ed36c	-0.17072839
171	0x3f7f6415	0.9976209
172	0x3d4f080c	0.050544783
173	0xbe634a1d	-0.2219624
174	0xbdd76ad3	-0.10518422
175	0x3f278fda	0.65453875
176	0x3d53015b	0.051514965
177	0x3f197611	0.5994578
178	0x3f4729d7	0.7779822
179	0xbe218d25	-0.15776499
180	0x3ef93e00	0.48680115
181	0x3fd0ac4b	1.630258
182	0x3e462f63	0.19354014
183	0xbca2641e	-0.01982313
184	0x3f9428fa	1.1575005
185	0xbdb550cf	-0.08853304
186	0xbe548ae6	-0.2075611
187	0xbd827589	-0.06370074
188	0x3eebbca8	0.4604237
189	0x3eaf2892	0.3421064
190	0x3f76b01f	0.9636249
191	0x3f028b8f	0.509942
192	0xbda23271	-0.07919777
193	0xbe53a5dd	-0.2066874
194	0x3f4182a7	0.75589985
195	0x3f502617	0.8130812
196	0x3f779f06	0.96727026
197	0x3f8f33ed	1.1187721
198	0x3ee48cac	0.44638574
199	0x3f2b86d5	0.6700261

sequential_2/dense_8/MatMul f4 [6, 10]
0	0x3f09c326	0.538134
1	0x3f399bcc	0.7250335
2	0xbf0f83b4	-0.5606034
3	0xbf63271b	-0.88731545
4	0x3f281c9f	0.6566867
5	0xbe3ec5a6	-0.18630084
6	0x3ef88d61	0.48545364
7	0x3f53cc02	0.82733166
8	0xbdbd51b0	-0.09244096
9	0x3b5891fc	0.0033045998
10	0x3ecfa6d2	0.4055696
11	0x3e5fef6a	0.21868673
12	0x3f1be9a7	0.609034
13	0x3eb73ed6	0.35790128
14	0xbefdf909	-0.4960406
15	0x3edcae24	0.4310161
16	0xbf5649e2	-0.83706486
17	0x3eb4c78b	0.3530849
18	0x3f1262eb	0.57182187
19	0x3f3a3f07	0.7275242
20	0xbee479dd	-0.44624224
21	0xbfa58e93	-1.2934135
22	0x3f43d21a	0.76492465
23	0xbeb26048	-0.34839082
24	0x3e63abab	0.22233455
25	0xbf7d1cd9	-0.98872143
26	0x3eaf4fcf	0.34240577
27	0xbe5601e6	-0.20899162
28	0x3ed2a02b	0.41137823
29	0x3ee79dd0	0.4523759
30	0xbe9c0538	-0.30472732
31	0x3f41afaa	0.7565867
32	0x3f75685b	0.9586236
33	0xbf84d9b7	-1.0378941
34	0xbccdbfc3	-0.025115853
35	0x3f79940c	0.97491527
36	0xbf63ead2	-0.8903018
37	0xbf007a7a	-0.50186884
38	0xbf3ff0a4	-0.74976563
39	0xbff8bfd0	-1.9433537
40	0xbfc1f322	-1.5152323
41	0x3ea217cd	0.31658784
42	0x3e1b645c	0.15175003
43	0xbfb9ab0d	-1.4505326
44	0xbf0efbc5	-0.5585292
45	0xc0023691	-2.0345805
46	0x3f6c5f46	0.92332876
47	0xc00b6d44	-2.178544
48	0x3e8fb971	0.28071168
49	0xbf31b2ef	-0.69413656
50	0x3deeb162	0.11654927
51	0xbf234f01	-0.63792425
52	0xbf2cb585	-0.67464477
53	0x3f5b1f41	0.85594565
54	0x3ed7d00d	0.42150918
55	0xbf0e7496	-0.55646646
56	0xbffa3413	-1.9547142
57	0xbec345b0	-0.38139105
58	0xbf98525f	-1.1900138
59	0x3f9ee52c	1.2413688
