pythonAutoGUI/hand-gesture-recognition-mediapipe-main (1)/hand-gesture-recognition-mediapipe-main/model/keypoint_classifier/keypoint_classifier.tflite (tflite, 6588 bytes, 6 tensors)

sequential/dense/BiasAdd/ReadVariableOp f4 [20]
00000000: d9bc 92be 733a 13bf d9c8 d3be 9191 183c
00000010: b9eb 29bf 4d70 c6be a3d6 5cbf 02c0 dcbe
00000020: 0bcf b3bd b6ca 3dbf 8415 ddbe de55 6abf
00000030: 3945 2cbf 9931 34bf 3a3d 8abe faae 4dbf
00000040: fc71 d7be 8625 b9be 27d5 e4be d264 43bf
-0.28659704 -0.5751106 -0.41364172 0.0093120495 -0.6637531 -0.38757554 -0.8626501 -0.4311524
-0.08779725 -0.7413744 -0.43180478 -0.9153727 -0.67293125 -0.7038818 -0.26999837 -0.8034512
-0.4207915 -0.3616144 -0.44693872 -0.76325715

sequential/dense_2/BiasAdd/ReadVariableOp f4 [5]
00000000: 639a 59be c34b 19bf b78e d33e e410 cf3e
00000010: 685a 063f
-0.212503 -0.5988123 0.4131982 0.40442574 0.524817

sequential/dense_1/BiasAdd/ReadVariableOp f4 [10]
00000000: 6051 473f 084a 823e 1e45 f0bc 7fe8 6fbe
00000010: 19d8 103f f1c2 0e3f ccba 7fbe 85d8 843e
00000020: a3d5 cf3d f66e 70be
0.77858543 0.25447106 -0.029329833 -0.23428534 0.5657974 0.55766207 -0.24973601 0.2594644
0.1014817 -0.23479828

sequential/dense/MatMul f4 [20, 42]
00000000: 2a39 c1bd a801 29be 1660 763f d3d8 bebe
00000010: a81b e23e e590 9bbd eaf3 0a3f 52ad b03d
00000020: ad78 eb3e 9853 a0be 8b9b 0d3f cd7e 84be
00000030: c3e1 a73e f0e2 1cbe 7533 34be 15e1 593d
00000040: b01d 99be 0e9e 82bd 6b84 5c3f c4fe 4dbd
00000050: 37cb d53e 4819 ca3d a63c 83be 7ee7 333e
00000060: 9521 8bbe 7129 0d3e c3c5 693f 894f 0abd
00000070: cd20 063e 2f45 8cbb cd7f 89be 3fdc debc
00000080: 2b03 b7be f9a2 75bd 5efd 2a3f 2326 65bd
00000090: d1bf 973e 60ad 5dbd 5490 93bd 9c22 8dbc
000000a0: df29 78be 72db d8bc 7001 4a3e 78bb 493d
000000b0: 8808 273f 6ea6 fa3e a087 f83e a966 a13d
000000c0: bd7e 233f af89 fbbd de7f 393f 2c4a da3b
000000d0: e641 fabd 1545 a13c 39b2 94bc e057 0e3d
000000e0: a809 693c 7cad 24bc 28d6 d93c 8538 2bbd
000000f0: 1922 d7bd 8a9c 3bbd ce63 b3bc 4994 6f3c
00000100: a099 38be b039 93bc 2e76 83be 06cf f73d
00000110: 9a1d ac3d 14b1 83bd 69d8 c3bd b67f 40bd
00000120: dba3 f9be 7264 853c 9137 43bf 6f9c 63bd
00000130: bbd1 c53e 68c9 83bd d164 c7bd 93fa 733d
00000140: 62c4 04bf 61fd dc3d 677b 49bf 2281 8f3d
00000150: 681e 0b3d 4160 3ebe f9e3 cbbc 47f4 b63e
00000160: 2627 2fbe 0efe 6c3e c9fc b9be b763 7e3e
00000170: d28d b8be 1392 b33e 0b2f bd3d cd99 273e
00000180: ce1b 8b3d fce1 f43c 988d b13d 0c58 3a3d
00000190: 1209 fa3d adc9 273c de6c 083d 1782 4f3e
000001a0: f5d0 e23c e6ae 373e f0d9 ad3c 7a1c 9dbd
000001b0: 16dc df3c 9cd3 093e 0922 933b a566 2d3e
000001c0: 9b9b 283d a97d 503d 3114 163e a46a 2bbf
000001d0: e0fc 733e 912a 3abf 92a3 f9bd 9467 ec3d
000001e0: 88c3 dfbd 941b 5d3d 0203 a43d 9be0 0cbf
000001f0: 369d e83d 895b 82bf a087 f93d 1840 7f3e
00000200: 6931 943e be67 443e 6e9a d23d 67c5 fc3d
00000210: 4314 be3d b2ce d03d 037c 213d e058 8c3e
00000220: d290 08bd 5aab c93d 3b96 d6bd 6c3c 6b3d
00000230: e50a 03be 1580 03be 9731 0fbf fef9 5dbf
00000240: 6ba8 1dbe 4269 093e 60ed 13be ee1e ed3d
00000250: ae14 eb3c 0c04 0a3e f265 b73d 8fb8 b03d
00000260: ce9f f2be a426 3c3e 9fe6 26be 7211 d33d
00000270: 482f 993c dc44 1e3d da57 043e 94ad 8c3c
00000280: 5ce3 9ebe 480b 3c3e 46a5 86be 87f2 f03d
00000290: 1141 8cbb 07ab c93d c897 7b3e 7b44 4c3d
000002a0: f49a 2b3e ecd2 5bbe 20cb d13b 32f7 2e3d
000002b0: 913c d13d 795c 49be b66c b43d 97ee 00bf
000002c0: c525 933d af8f 39bf 6ac0 67be c94b 863d
000002d0: bb0c 55bd 82af 19bd 8614 8f3d b2d1 e7bd
000002e0: 6671 a03d 249c 4bbd caf5 4dbe 8e40 cf3d
000002f0: 2a79 25bc 745e 81be f8c3 4dbd b7f8 b83d
00000300: 431f 1abe 832d 073f b9fe 4fbe 7666 7fbd
00000310: 2434 983c 22e4 0dbe 5b58 453c 6031 b43e
00000320: 6923 34be 5981 863f ebe8 e8bc a2f0 4fbe
00000330: 80d9 1a3e ba8d 95bd f241 14bc ac3d 023f
00000340: 99c1 9cbe 6cc9 aa3f 0186 64be a00b da3d
00000350: 8398 08bf 4f08 ca3d f3b7 c6be 1ff9 013e
00000360: 56a6 fbbd e779 303e 3def 45bd 7725 143e
00000370: 7067 80be bc4d b3bd ea96 a3bd 9965 60be
00000380: c8c6 5b3e ea63 7abe 35f8 9e3f 2f15 45be
00000390: ca38 06be 9a6a 81bd 79cd 07be c1d0 363d
000003a0: 3351 2dbe ee22 2a3e f37c d7bd 38ec d83d
000003b0: aa4d 283e ae10 723c 2720 4e3d 982e b33d
000003c0: 3ee2 7fbd a27c e33d 2a62 19be 395b ef3b
000003d0: 1082 8f3e 9242 f73c 8e71 0d3e 343c 063e
000003e0: f55f 7c3d 392c 0d3e 1c09 e7bd e97c 33bc
000003f0: f811 6d3e b47f ee3d dcf6 55bf 6827 b0be
-0.09434731 -0.16504538 0.96240366 -0.372748 0.44161725 -0.07595996 0.54278433 0.08626808
0.45990506 -0.31313777 0.55315465 -0.2587799 0.3278943 -0.15320945 -0.17597754 0.05319317
-0.29905462 -0.06377803 0.86139554 -0.05029179 0.41756603 0.09868103 -0.2563221 0.17568776
-0.2717406 0.1378534 0.91317385 -0.033767257 0.1309845 -0.0042807083 -0.26855317 -0.02720463
-0.35744604 -0.059969876 0.6679286 -0.055944573 0.29638532 -0.05412042 -0.07205263 -0.017228417
-0.24234723 -0.026471827 0.19727111 0.04925105 0.6524739 0.489551 0.48540974 0.07880909
0.6386526 -0.122821204 0.72460735 0.006661674 -0.122196004 0.019686261 -0.01815139 0.034751773
0.014223494 -0.0100511275 0.026591375 -0.041801948 -0.105045505 -0.045803584 -0.021898177 0.014622756
-0.18027353 -0.017971843 -0.256761 0.121000335 0.084040835 -0.06430259 -0.09562761 -0.046996795
-0.48757824 0.016283248 -0.7625666 -0.05556911 0.38636574 -0.064348996 -0.09736026 0.059565138
-0.51862156 0.10790516 -0.7870392 0.07007052 0.033964545 -0.18591405 -0.02488898 0.35733244
-0.17104778 0.23143789 -0.36325672 0.24842726 -0.360457 0.35072383 0.09237488 0.16367264
0.06792413 0.029892914 0.08669585 0.045494124 0.12208761 0.010240954 0.03330695 0.20264469
0.02768753 0.17937812 0.021222085 -0.07671447 0.027326625 0.13459629 0.0044901413 0.16933687
0.041164022 0.05090109 0.1465614 -0.66959596 0.23826933 -0.727212 -0.12189402 0.115431935
-0.109259665 0.05398138 0.08008386 -0.5503022 0.113581106 -1.0184184 0.121840715 0.24926794
0.28943947 0.191802 0.102833614 0.12342339 0.09281208 0.10195674 0.039424907 0.27411556
-0.033341236 0.09847136 -0.10477873 0.05743067 -0.12797125 -0.12841828 -0.55935043 -0.8670958
-0.15396278 0.13419059 -0.1444602 0.11578165 0.028696384 0.13478106 0.089549914 0.08628952
-0.47387546 0.18374115 -0.16298912 0.10306062 0.018699303 0.03863989 0.12924138 0.017172612
-0.31032836 0.18363678 -0.2629797 0.117650084 -0.0042802175 0.09847074 0.24569619 0.049869996
0.16758329 -0.21467179 0.006402388 0.042716213 0.1021663 -0.19664182 0.088097975 -0.5036406
0.07184938 -0.7248487 -0.22631994 0.065574236 -0.052014094 -0.037520893 0.069863364 -0.11319293
0.07834129 -0.049709454 -0.20113292 0.10119735 -0.010099689 -0.25267375 -0.05023572 0.090318136
-0.15050988 0.5280382 -0.20312013 -0.062353574 0.01857955 -0.13856557 0.012044991 0.3519392
-0.17591633 1.0508224 -0.028431376 -0.20306638 0.15122032 -0.07302423 -0.009048926 0.50875354
-0.30616453 1.3342719 -0.22316743 0.106467485 -0.53357714 0.09864866 -0.38812217 0.12692688
-0.122875854 0.17234002 -0.04832386 0.14467417 -0.25078917 -0.08755061 -0.07987769 -0.21913756
0.21462548 -0.24452177 1.2419497 -0.19246362 -0.13107601 -0.06319161 -0.13261975 0.044632677
-0.16925506 0.16614887 -0.10521879 0.1059193 0.16435876 0.014774485 0.05032363 0.087491214
-0.06247162 0.11107756 -0.14978853 0.0073045758 0.28028917 0.03018311 0.13812849 0.13108903
0.06161495 0.13786401 -0.11281034 -0.010955074 0.23151386 0.11645451 -0.835798 -0.34405065

sequential/dense_1/MatMul f4 [10, 20]
00000000: 5eea bc3e a1b4 ecbe 165e 1dbf cf86 753e
00000010: 3827 25bf fa86 ea3e d792 cbbe 9453 14bf
00000020: 70ee 923e 86b1 ce3e 70ed b83e f2ff b13e
00000030: 6bc2 6c3f 8d65 153f 06aa 303f 5cb2 ecbe
00000040: b14e 88bf 0ff3 e2be ddd4 c43e 5579 16bf
00000050: fb33 833f e03f 963f a5ae c03d 1e19 cb3f
00000060: 62b3 7c3f d165 843f 5a03 a83d 0c0d f0bd
00000070: 50c3 c33f ee97 5abd 8424 c23f 78e4 233f
00000080: 4b87 cb3e 2085 6f3d 6740 e53f 34d0 033f
00000090: 1e83 083e d686 7e3f 36f3 273f 8054 043d
000000a0: 240c d63e 8907 083e 51f0 bdbb 0007 aabe
000000b0: 3e23 0a3d 0867 9a3c cc94 1ebf 5ed3 25bd
000000c0: 5e28 3cbe 9b85 82be 3bea 0b3f ad7d 823f
000000d0: aca0 833d 70a0 c2bd 5414 7cbd 6fab 0f3e
000000e0: da0f 823d 4f9c 9c3d aaff 08bf 2efd 883c
000000f0: 112c 303f 724a 6ebd 9667 86be cefb 03bf
00000100: aa61 573c d2a2 f73e 64d5 2d3f adad 0cbf
00000110: bbcf e8be 6574 7c3c c118 3ebf f908 e2bd
00000120: f378 983d f52f efbd b393 0ebf ddd1 a8bd
00000130: 3fe7 97be 07eb 923d 93b2 c73e 5dc7 87be
00000140: eee0 40be 0e60 ed3d 90b6 f83d 952a 20bd
00000150: 7cdf 153e 1e42 273e 9c33 153f 6eb5 7a3e
00000160: 4f5c b53e 32c5 573f ea10 76bf 6a4b 37be
00000170: bdf4 713e c40b 54bf df5a ecbe 3e56 a8bd
00000180: ee03 923c 1af0 173d c207 afbe ca20 0c3e
00000190: 8ddd f5bb 12d8 a03c a69a 06bf 91c3 fc3d
000001a0: 4706 483f 3b60 403f 772d 36bf f0e3 92bf
000001b0: ce8e ec3e 124b 0bbe 3379 5e3d a701 c1be
000001c0: 6fda 863e 7936 24be 7cda f0be 1e3b 1dbf
000001d0: 48bf c53c c18e 4d3e 309d c2bd 9ee4 c8bf
000001e0: a65d aebe 5fab 543e 26b5 d43d 30a7 293d
000001f0: 9bed 763b 93a6 48bd 557c 7ebf ea19 973d
00000200: bdb8 2f3e 4589 183f 5435 063f 4b03 c8be
00000210: e32b 17bd 1c89 393f 1d7e 813c e5dd a8b9
00000220: c65b b03d 216e dcbc 964d 4d3e f3d6 0a3e
00000230: 4b2c 8f3d 8381 5e3f c4f7 6b3f ca23 c3bc
00000240: a1c0 953f 2177 1b3f d505 213f ad2b 303e
00000250: d6e9 26be 87d9 96bd 1f76 433f dbc3 84bd
00000260: 741f bcbe 4e7a 783e 1142 03be 62ba 67be
00000270: cb92 8b3f b441 6e3f 151e a9bd e515 4f3f
00000280: b420 bd3e 2415 503f 0266 853e 11cc 343e
00000290: 2929 a23e 1ead 4abe c427 c73d 03c5 893f
000002a0: 5c46 9c3d 9569 27bf ffde e0be 1425 8c3e
000002b0: b804 99b9 3271 debe f23d b43e 02e8 b03f
000002c0: 928b ae3e 9d0a 673e 927c 0b3f 1ab7 103f
000002d0: c2b6 033e 314c 8a3e 96b8 0f3e 3c05 123e
000002e0: 0c5c f63e 8f0a 0cbe 73ec 2a3f 5d68 19be
000002f0: 2738 453e 677e a53e 7960 0c3e 62d6 443f
00000300: 8dc3 113f 1fcf 533f 308b 33bf e8ad 143e
00000310: ba46 b6bd 6511 663e 57b6 8d3e c5d6 2c3e
0.36897558 -0.4623156 -0.6147169 0.23977207 -0.6451297 0.45806104 -0.39760467 -0.5794003
0.28697538 0.40369815 0.3611865 0.34765583 0.9248416 0.5835808 0.69009435 -0.46229827
-1.0649015 -0.44326064 0.38443652 -0.5877889 1.0250238 1.1738243 0.09408311 1.586704
0.98711216 1.0343572 0.08203764 -0.117212385 1.529398 -0.053367548 1.5167394 0.6402049
0.39751658 0.058476567 1.7910279 0.5148957 0.13331267 0.99424493 0.65605485 0.032307148
0.41806138 0.13284124 -0.00579647 -0.33208466 0.033725016 0.018847957 -0.61945796 -0.04048478
-0.18374774 -0.25492558 0.5465428 1.0194603 0.0642713 -0.09503257 -0.061542824 0.1403024
0.0635068 0.07647001 -0.5351511 0.016722288 0.6881724 -0.058176465 -0.26250905 -0.515561
0.0131458435 0.4836641 0.67903733 -0.5495251 -0.45470986 0.01540861 -0.7425652 -0.11036868
0.07444944 -0.11679069 -0.5569412 -0.08243153 -0.29668614 0.07173734 0.3900343 -0.2651929
-0.18835804 0.115905866 0.12144196 -0.03910311 0.14636034 0.16333815 0.58281875 0.24483272
0.35421988 0.8428527 -0.9611956 -0.17899862 0.23628516 -0.8283045 -0.4616308 -0.082195744
0.01782414 0.037094213 -0.34185606 0.13684383 -0.0075032176 0.01963428 -0.52579725 0.12341989
0.7813458 0.75146836 -0.71163124 -1.1475811 0.462027 -0.13602856 0.054314803 -0.37696573
0.26338527 -0.16036405 -0.4704169 -0.6141833 0.024139062 0.20073988 -0.095026374 -1.5694768
-0.34055823 0.20768498 0.10386114 0.041419208 0.0037678245 -0.048986983 -0.99408466 0.073779896
0.17160316 0.59584457 0.5242512 -0.39065012 -0.036907088 0.7247484 0.015807206 -0.0003220878
0.086112544 -0.026907982 0.20049128 0.13558559 0.0699087 0.8691637 0.92174935 -0.023820776
1.1699411 0.6072865 0.62899524 0.17204161 -0.16300139 -0.07365709 0.76352113 -0.06482669
-0.36742747 0.24265406 -0.12818171 -0.22629693 1.0904173 0.93069005 -0.08257691 0.80892783
0.36939013 0.8128226 0.26054388 0.1765597 0.31672028 -0.19792601 0.097243816 1.0763248
0.076306075 -0.6539548 -0.43920133 0.27372038 -0.0002918595 -0.43445736 0.3520351 1.3820803
0.3409086 0.22562642 0.54486954 0.5652939 0.12862685 0.27011254 0.14035258 0.1425981
0.481171 -0.13675903 0.6676704 -0.14981218 0.19259702 0.32323 0.13708676 0.7688962
0.5693901 0.82737917 -0.7013426 0.14519465 -0.08900209 0.22467573 0.27678177 0.16878803

sequential/dense_2/MatMul f4 [5, 10]
00000000: f94a 18bf 7939 e03e e0a4 1bbf 79bc 37bf
00000010: 931b 74bf a067 903e 71b4 72bf 5b74 eb3e
00000020: 8341 6e3f 98f5 36bf 6246 4ebe c947 923e
00000030: 2312 7a3f 73f9 003f 3bf0 353f 4fc4 45bf
00000040: b622 933f d6a3 99be 0274 903d 7d26 6e3f
00000050: 5270 833f b906 e43e 250c 56bf ac2e 893d
00000060: bf99 38bf 0930 813e 774b 48bf dbec e2be
00000070: 51ea 7dbf cf01 62bf 8141 5abf d541 2bc0
00000080: 4315 a1bf 42d5 b63d 0632 1e3f 6214 d4bf
00000090: feef a2bd fbea 3d3f 0212 6b3e f433 0ebe
000000a0: ff09 583e 83be c3bd 8915 47bf 3275 cfbf
000000b0: 0d6c 50bf b3f4 dcbf 0787 e6bf 56a8 f3bf
000000c0: 138d 9c3f d003 abbf
-0.594894 0.43793848 -0.60798454 -0.7177196 -0.95354575 0.2820406 -0.9480658 0.4598721
0.9306871 -0.71468496 -0.20144036 0.28570393 0.97683924 0.5038063 0.7106969 -0.7725267
1.1494968 -0.3000781 0.07053377 0.9302748 1.0268652 0.4453638 -0.8361228 0.06698355
-0.721096 0.2523196 -0.7824015 -0.4432133 -0.99185663 -0.8828401 -0.852562 -2.675893
-1.2584614 0.089273944 0.6179508 -1.656872 -0.07955931 0.74186677 0.22956088 -0.13887006
0.21097563 -0.095578216 -0.77767235 -1.620764 -0.8141487 -1.7262176 -1.8009957 -1.9035747
1.2230552 -1.3360538
