pythonAutoGUI/hand-gesture-recognition-mediapipe-main (1)/hand-gesture-recognition-mediapipe-main/model/keypoint_classifier/keypoint_classifier.tflite (tflite, 6676 bytes, 6 tensors)

sequential/dense/BiasAdd/ReadVariableOp f4 [20]
0	0xbf493a91	-0.7860499
1	0x3e9dcd9a	0.30820924
2	0xbf0ff926	-0.56239545
3	0xbef0ed24	-0.47055924
4	0xbedb7bbf	-0.42867848
5	0xbf102e6c	-0.56320834
6	0xbeb1af97	-0.34704277
7	0xbf153f68	-0.58299875
8	0xbf083ef4	-0.5322106
9	0xbebb27a9	-0.36553696
10	0xbf57653c	-0.84138846
11	0xbeb01f18	-0.34398723
12	0xbeca63ad	-0.39529172
13	0xbf06aee7	-0.5261063
14	0x3e79fd05	0.24412926
15	0x3ef54441	0.47903636
16	0xbefcee75	-0.49400678
17	0xbf5bce3b	-0.8586156
18	0x3e0cc14e	0.13745615
19	0xbf224e31	-0.6340056

sequential/dense_2/BiasAdd/ReadVariableOp f4 [7]
0	0xbf201a41	-0.6254006
1	0xbe9f80f2	-0.31153065
2	0x3f1b05cc	0.6055572
3	0x3e93e2a1	0.28883842
4	0x3f1af38a	0.6052786
5	0xbebf9ce7	-0.37424394
6	0xbe093175	-0.13397773

sequential/dense_1/BiasAdd/ReadVariableOp f4 [10]
0	0x3dd2ec89	0.10299022
1	0x3f4186e4	0.7559645
2	0x3ed0fbc0	0.4081707
3	0x3ddec00d	0.108764745
4	0x3e8bb264	0.2728454
5	0xbc857212	-0.016289745
6	0xbf040dfb	-0.5158383
7	0x3eeccfae	0.46252197
8	0x3da4b2c1	0.08041907
9	0x3eef35c7	0.46720716

sequential/dense/MatMul f4 [20, 42]
0	0x3d78e018	0.060760587
1	0x3d631098	0.055435747
2	0x3f896b15	1.0735804
3	0x3e6ca5bc	0.23110098
4	0x3f38ee74	0.7223885
5	0x3dc4b8f2	0.09605588
6	0x3f4301e2	0.7617475
7	0x3d8fbdcf	0.07018625
8	0x3f5027e1	0.8131085
9	0x3a78a2f4	0.0009484731
10	0x3ea801a8	0.32813764
11	0x3dbe39ab	0.09288343
12	0x3d34ca58	0.044138283
13	0x3d60f7af	0.05492371
14	0xbe9172d0	-0.28407907
15	0x3d8447b4	0.06458989
16	0xbec7aae9	-0.38997582
17	0x3d9b9d0e	0.07598315
18	0x3e8c2e23	0.2737895
19	0x3a8ed26b	0.001089645
20	0xbce9fd3a	-0.02856313
21	0xbd2580b1	-0.040405933
22	0x3d450928	0.048104435
23	0xbda4347b	-0.08017822
24	0x3e18ff12	0.14941052
25	0xbd9f5823	-0.077804826
26	0x3eb8a607	0.3606417
27	0xbd997709	-0.07493407
28	0xbe27821c	-0.16358227
29	0xbded8f43	-0.11599591
30	0xbe97aa4b	-0.2962211
31	0xbe633017	-0.22186314
32	0xbc5a91b3	-0.013340401
33	0xbe775dbe	-0.24156854
34	0x3e5dbb20	0.21653414
35	0xbdff646b	-0.12470325
36	0xbea1cd9a	-0.31602174
37	0xbd82a862	-0.06379773
38	0xbf2683dc	-0.6504495
39	0xbd940993	-0.07228389
40	0xbf1cf765	-0.61314994
41	0xbe137579	-0.14400281
42	0xbd015db0	-0.031583488
43	0x3e4901b0	0.1962955
44	0x3fa7a040	1.309578
45	0x3ecacb3c	0.3960818
46	0x3f549381	0.83037573
47	0x3e825f33	0.25463256
48	0x3f54b9d8	0.83096075
49	0x3dd8bc94	0.105828434
50	0x3ef5f5bc	0.48039043
51	0x3e4d1bb1	0.20030095
52	0x3f119cb3	0.5687973
53	0x3f585e47	0.84518856
54	0x3e4265fc	0.18984216
55	0x3ed4c184	0.4155389
56	0xbe00ffcd	-0.1259758
57	0x3eb7b409	0.35879543
58	0xbc8075b3	-0.015681123
59	0x3ddd4887	0.10804849
60	0x3ed93c4b	0.42428812
61	0x3f3a8e76	0.7287363
62	0x3e1fe10b	0.15613191
63	0xbe43c2f8	-0.19117343
64	0x3da8bb7e	0.08238886
65	0x3e562b5f	0.20914982
66	0x3dfdf9ee	0.12401186
67	0x3f641d6f	0.8910741
68	0x3e5c0f19	0.21490134
69	0x3d4f23ff	0.050571438
70	0xbe56ea7e	-0.20987889
71	0xbee4ac31	-0.44662622
72	0xbe65eb1f	-0.22452973
73	0x3f15c9c1	0.5851098
74	0x3d89dd2b	0.067316376
75	0x3f82d3c5	1.0220877
76	0xbd2c16e8	-0.042014033
77	0xbe998a58	-0.2998836
78	0xbea01c0f	-0.31271407
79	0xbeed4dd8	-0.46348453
80	0xbe652672	-0.22377947
81	0xbe86565a	-0.26237756
82	0xbdd0c6bd	-0.10194156
83	0x3ea9a69f	0.33134934
84	0xbe0a57ec	-0.13510102
85	0xbd599b18	-0.053126425
86	0x3f05cf68	0.522696
87	0x3dd37e65	0.10326842
88	0x3ed05a09	0.4069369
89	0xbca7f16d	-0.020500863
90	0x3f0bbcca	0.54584944
91	0xbd9767b5	-0.073928274
92	0x3f7da753	0.9908344
93	0xbdff818b	-0.1247588
94	0xbe47eb2d	-0.19523306
95	0xbca667df	-0.020313201
96	0xbe000fb7	-0.12505995
97	0x3d871470	0.06595695
98	0xbcef3d8d	-0.029204154
99	0x3c689637	0.01419597
100	0x3d62b558	0.055348724
101	0x3ab176d0	0.0013539437
102	0xbd8297e5	-0.06376628
103	0xbd9f7d4c	-0.0778757
104	0xbe1ca011	-0.15295435
105	0x3d61beec	0.055113718
106	0xbcc36f88	-0.023856893
107	0xbc0034f1	-0.007825122
108	0xbdea36db	-0.11436244
109	0xbbbf0704	-0.0058296937
110	0xbc893cc7	-0.016752614
111	0xbd199bd0	-0.03750211
112	0xbe348d9c	-0.17632145
113	0x3ca48687	0.020083679
114	0xbee631fd	-0.44960013
115	0xbdd7e694	-0.10542026
116	0xbef382dc	-0.47560775
117	0xbd11d6cc	-0.035605237
118	0x3dab1364	0.08353308
119	0x3d2d106a	0.04225198
120	0xbe03cba3	-0.1287065
121	0x3df00ac5	0.11720804
122	0xbec9aeb5	-0.39391103
123	0x3c389ce9	0.011267879
124	0xbf2a0d0f	-0.66426176
125	0xbd737596	-0.05943831
126	0x3e6998d8	0.22812212
127	0x3d6abc78	0.057308644
128	0xbf414415	-0.7549451
129	0x3e329591	0.17439868
130	0xbec0124d	-0.37513962
131	0x3e2fc52a	0.17165056
132	0xbf2a7198	-0.6657958
133	0x3ddfb0db	0.109224044
134	0xbf49e6d4	-0.7886784
135	0x3d1afa08	0.037836105
136	0xbc2afd81	-0.010436417
137	0x3e6a264c	0.22866172
138	0x3e5d8bd5	0.21635373
139	0x3e20801c	0.1567387
140	0x3eb47c08	0.35250878
141	0x3e531347	0.20612822
142	0x3efe29a2	0.49641138
143	0x3e05cbe4	0.1306606
144	0xbe0ce453	-0.13758974
145	0x3e4db951	0.20090224
146	0x3d324153	0.04351933
147	0x3d799adf	0.060938712
148	0xbe84d8a3	-0.2594653
149	0x3dfb7317	0.12277811
150	0xbf2b82ca	-0.66996443
151	0x3e8456b3	0.25847396
152	0xbe9b251f	-0.3030176
153	0x3d445fb7	0.047942843
154	0x3d8c9885	0.06865028
155	0xbe508535	-0.20363314
156	0x3e47c93d	0.1951036
157	0xbf3bfafa	-0.73429835
158	0xbdc626a0	-0.09675336
159	0xbf352668	-0.7076173
160	0xbe821029	-0.25402954
161	0x3d331455	0.043720562
162	0x3e645b47	0.22300445
163	0xbebedafd	-0.3727645
164	0x3e77040b	0.24122636
165	0xbf7b9c60	-0.98285484
166	0x3e7d7aee	0.24753925
167	0xbf8c35e7	-1.095395
168	0xbe7bf158	-0.24603784
169	0x3dea5a2c	0.1144298
170	0xbe0167da	-0.12637272
171	0x3f188f62	0.59593785
172	0xbdeb7e44	-0.11498693
173	0x3ea69aa7	0.32539865
174	0xbe5bd067	-0.21466218
175	0x3ec6a7f7	0.38800022
176	0xbeb47c2a	-0.3525098
177	0x3ea07d1c	0.3134545
178	0x3df44a63	0.11928251
179	0x3e2ea890	0.17056489
180	0x3d439be3	0.047756087
181	0x3e086a64	0.13321835
182	0x3d4319df	0.047632094
183	0x3dc3c031	0.09558142
184	0x3d95e1fb	0.07318493
185	0x3c8772e5	0.016534278
186	0x3e28d592	0.1648772
187	0x3e0ed707	0.13949214
188	0xbc1ab2df	-0.00944206
189	0x3dbeda63	0.09318998
190	0xbcd61bcb	-0.0261363
191	0xbdd7b511	-0.105325826
192	0x3e0a9f93	0.13537435
193	0xbf98f189	-1.1948711
194	0x3d98ddcd	0.0746418
195	0x3dad44fa	0.08460422
196	0xbd05b3f7	-0.03264233
197	0x3d9814d6	0.07425849
198	0xbbcc079d	-0.0062264935
199	0xbed5ee2a	-0.41783267
200	0x3c895a2d	0.016766632
201	0xbf0a66f5	-0.5406335
202	0x3d7971f0	0.060899675
203	0xbaea02bf	-0.0017853602
204	0xbe118745	-0.14211757
205	0x3cf6697b	0.030079594
206	0xb9e4b3f9	-0.0004362164
207	0xbea09bca	-0.31368858
208	0xbd92846e	-0.07154165
209	0xbf37f4bb	-0.71857804
210	0xbd77e598	-0.060521692
211	0xbe607616	-0.21920046
212	0x3dfe9fe0	0.124328375
213	0xbe01f38f	-0.12690566
214	0xbc1fb2df	-0.009747236
215	0xbe09b0fe	-0.13446423
216	0x3e27225d	0.16321702
217	0x3d630a06	0.05542948
218	0x3e349acc	0.17637175
219	0xbdb44e1e	-0.08803962
220	0x3db05154	0.08609262
221	0xbe387ee8	-0.18017161
222	0x3df1f999	0.11815185
223	0xbd9ba535	-0.0759987
224	0xbbcacf06	-0.00618923
225	0xbcba0bd2	-0.022710714
226	0xbd875a6b	-0.06609043
227	0x3cc3eef2	0.023917649
228	0x3ee534d0	0.44766855
229	0xbe835f61	-0.25658706
230	0x3c06289b	0.008188392
231	0x3dad517c	0.084628075
232	0xbe7ab8b6	-0.24484524
233	0x3e29d9fa	0.16587058
234	0xbe83546a	-0.2565034
235	0x3e06233e	0.13099381
236	0x3f07f995	0.53115207
237	0xbec8d39f	-0.39223954
238	0x3df77e32	0.12084617
239	0x3d9ef29f	0.0776112
240	0xbe34dd74	-0.17662603
241	0x3db98d33	0.09060135
242	0xbe507699	-0.20357741
243	0x3ce0b774	0.027431227
244	0x3f3fff3c	0.7499883
245	0xbf2e74f0	-0.6814718
246	0x3eafa3cc	0.34304655
247	0x3dada7b0	0.084792495
248	0xbd4e91a6	-0.05043187
249	0x3dc3920b	0.0954934
250	0xbdc813cd	-0.09769402
251	0x3d8db7ff	0.0691986
252	0xbe9d4ae1	-0.3072119
253	0x3e4c4b08	0.19950497
254	0x3ef02032	0.46899563
255	0x3f13fded	0.57809335

sequential/dense_1/MatMul f4 [10, 20]
0	0x3f1b42ab	0.606486
1	0xbebb6aae	-0.36604828
2	0x3fb85cf1	1.4403363
3	0x3d69381d	0.05693828
4	0xbbd29360	-0.00642626
5	0x3c27628d	0.010216367
6	0x3f89d2f0	1.0767498
7	0xbdb09ad2	-0.0862328
8	0x3f08cb30	0.5343504
9	0x3f521248	0.82059145
10	0xbf021fc4	-0.5082972
11	0x3e9db78b	0.30804095
12	0x3f93657b	1.1515344
13	0x3f882cc0	1.0638657
14	0x3bace9e9	0.0052769077
15	0x3d0d4ad6	0.034495197
16	0x3f8f27fa	1.1184075
17	0x3ec6eb31	0.38851312
18	0x3bece39b	0.007229281
19	0x3f1e6599	0.61873776
20	0x3ecf75ee	0.4051966
21	0x3f0b35ae	0.54378784
22	0x3e7ae247	0.2450038
23	0x3db7a291	0.08966554
24	0xbe0766bf	-0.13222788
25	0x3f79d970	0.9759741
26	0xbe740609	-0.23830427
27	0x3e15a17c	0.14612383
28	0x3f7d1bcb	0.98870534
29	0xbf2c8bf4	-0.6740105
30	0x3eee6f47	0.46569273
31	0x3e848ed3	0.25890216
32	0xbef53db0	-0.47898626
33	0xbecae54b	-0.39628062
34	0x3f347bfe	0.705017
35	0x3f470a7d	0.7775038
36	0xbead6576	-0.3386647
37	0x3f478007	0.7792973
38	0x3f1035d5	0.5633214
39	0x3f0416cd	0.5159729
40	0xbeb64757	-0.35601303
41	0xbf160359	-0.5859886
42	0xbf3da322	-0.74077046
43	0x3f57242c	0.8403957
44	0x3e9a80bc	0.30176342
45	0xbeb9f35e	-0.36318487
46	0xbf274ffc	-0.6535642
47	0x3e45b1c5	0.19306095
48	0x3d48ec03	0.049053203
49	0x3f3555f5	0.70834285
50	0x3f164beb	0.5870959
51	0xbf97f2ea	-1.1871006
52	0x3e947610	0.28996325
53	0x3e5812ab	0.21100871
54	0xbe75cb99	-0.24003448
55	0x3f34c5fc	0.706146
56	0xbd751b58	-0.05984053
57	0xbeffb751	-0.49944547
58	0xbed6a5be	-0.41923326
59	0x3e48a08e	0.19592497
60	0x3f03c650	0.51474476
61	0x3e8a670e	0.2703175
62	0x3ebf4b8e	0.3736233
63	0xbfb4c735	-1.4123293
64	0x3f574331	0.840869
65	0x3d525b00	0.051356316
66	0x3e838d10	0.2569356
67	0x3f813bba	1.0096352
68	0xbd809baf	-0.06279694
69	0x3efb83c0	0.49123955
70	0x3f188ee4	0.59593034
71	0xbd0b1cd7	-0.03396305
72	0xbbe467cd	-0.006970382
73	0x3ddc1e85	0.10748009
74	0x3ee42569	0.44559792
75	0x3eabe6ad	0.3357443
76	0x3e1e6889	0.15469564
77	0xbe8791cc	-0.26478422
78	0x3c01de43	0.0079265265
79	0x3c91ecf0	0.017813176
80	0x3e724db0	0.23662448
81	0x3f275edc	0.6537912
82	0x3e7e187e	0.2481403
83	0x3ca81edc	0.020522527
84	0xbb976c72	-0.004621082
85	0x3e2f1f11	0.17101695
86	0x3e0c1fb0	0.13683963
87	0xbd40b902	-0.047051437
88	0x3eb39d1f	0.3508081
89	0x3e740973	0.2383173
90	0xbee6ad8a	-0.45054275
91	0x3e197336	0.14985356
92	0x3ef612f3	0.48061332
93	0x3f1a639b	0.60308236
94	0x3ea2a8ae	0.31769317
95	0x3f06e26e	0.52689254
96	0xbe3cb817	-0.184296
97	0xbe8338b4	-0.256292
98	0x3f2553aa	0.64580786
99	0xbe2f2bda	-0.17106572
100	0x3ed74dc7	0.42051527
101	0x3e6d9e1d	0.23204847
102	0x3e393737	0.18087469
103	0xbdb6f387	-0.08933168
104	0xbd87ade0	-0.06624961
105	0x3f27f941	0.65614706
106	0x3dd293a2	0.10282065
107	0x3d7456ec	0.059653208
108	0xbea02fa3	-0.31286344
109	0xbec48d03	-0.38388833
110	0x3f6c8455	0.9238942
111	0x3e9823a0	0.2971468
112	0xbdb990be	-0.090608105
113	0x3d1537f1	0.036430303
114	0xbd7f1cca	-0.062283315
115	0xbe04597c	-0.1292476
116	0x3e4b65d6	0.19863066
117	0x3f2bfb53	0.67180365
118	0xbe11c0a8	-0.14233649
119	0x3f8a9c91	1.082903
120	0xbd32f6f7	-0.043692555
121	0x3e8524e1	0.260047
122	0xbcc53f9e	-0.024078187
123	0x3e96e74c	0.2947334
124	0xbe0099a5	-0.1255861
125	0xbe07c5f1	-0.13259102
126	0x3edc8b2d	0.43074933
127	0x3ebfd468	0.3746674
128	0x3e22191f	0.15829895
129	0xbdc13c12	-0.09435286
130	0xbf02196b	-0.50820035
131	0xb9162b06	-0.00014321142
132	0x3ef8d0af	0.48596713
133	0x3f74d5be	0.95638645
134	0x3e2de554	0.16982013
135	0x3ef2340d	0.47305337
136	0x3e91e4f4	0.2849499
137	0x3f79e6c3	0.9761774
138	0x3d211d60	0.039334655
139	0x3c2be45b	0.010491456
140	0xbd33cd1a	-0.043896772
141	0x3d883f6c	0.06652722
142	0xbd058022	-0.0325929
143	0xbc0ae737	-0.0084779775
144	0xbf9d15a0	-1.2272224
145	0x3d2a25a9	0.04153982
146	0xbeae96e6	-0.340995
147	0x3e83bac7	0.25728437
148	0xbd8469ab	-0.06465467
149	0x3f28e5d7	0.6597571
150	0xbdece619	-0.11567325
151	0xbd5f4707	-0.054511096
152	0x3d89d6e7	0.067304425
153	0xbef98abc	-0.48738658
154	0x3ec8b95b	0.39203915
155	0x3ef8018a	0.48438674
156	0xbe07ec66	-0.13273773
157	0xbebcd44b	-0.36880717
158	0xbf775feb	-0.96630734
159	0xbeaaa04f	-0.3332543
160	0x3f1300ac	0.574229
161	0x3ee55245	0.4478933
162	0x3f049f39	0.51805454
163	0x3f1bde82	0.60886395
164	0x3f45a7b9	0.7720905
165	0xbe929da1	-0.28635886
166	0x3f1026c7	0.5630917
167	0x3f07265a	0.52792895
168	0xbe49fdcd	-0.19725724
169	0x3f983626	1.1891525
170	0x3e0d3cb1	0.13792683
171	0x3daf37c3	0.085555576
172	0x3e191ec0	0.14953136
173	0xbd9caf1a	-0.076505855
174	0x3e220839	0.15823449
175	0x3e112a3b	0.14176266
176	0x3e382e29	0.17986359
177	0xbdd9ef55	-0.10641352
178	0x3decbaab	0.115590416
179	0xbea037d4	-0.31292593
180	0x3f3ba28c	0.732949
181	0xbf18d1e0	-0.59695244
182	0x3d53506e	0.051590376
183	0x3db5154f	0.08841955
184	0x3d92e355	0.071722664
185	0x3c5579df	0.013029545
186	0x3e32a141	0.17444326
187	0x3e0c9958	0.13730371
188	0xbd971520	-0.07377076
189	0xbe546948	-0.20743287
190	0xbf11b6eb	-0.56919736
191	0x3f03c015	0.5146497
192	0x3e8f6a8a	0.2801097
193	0x3d1bd0b9	0.03804085
194	0x3fbde2e1	1.4834863
195	0x3e913fbb	0.28368935
196	0x3ef5b394	0.4798857
197	0x3e4a48fe	0.19754407
198	0x3fb13504	1.3844304
199	0xbe957b52	-0.29195648

sequential/dense_2/MatMul f4 [7, 10]
0	0x3e1267d3	0.14297418
1	0xbf15b2d9	-0.58476025
2	0xbccc7a23	-0.024960583
3	0x3f02d8c6	0.5111202
4	0x3f29691b	0.66176003
5	0xbf954c99	-1.1664001
6	0x3f641574	0.89095235
7	0x3e6a1b58	0.22861993
8	0x3f5685ce	0.8379792
9	0x3f0c1726	0.5472282
10	0xbe3db22c	-0.18524998
11	0x3f468af9	0.77555805
12	0x3ef82ac4	0.48470128
13	0x3eb06818	0.34454417
14	0xbed06f49	-0.40709904
15	0x3f42c94f	0.7608842
16	0x3f0ec003	0.55761737
17	0xbf476877	-0.77893776
18	0x3dca0e6a	0.098660305
19	0x3dd3855c	0.10328171
20	0xbfa99c52	-1.325083
21	0x3f465a26	0.77481306
22	0x3ced9b23	0.029004639
23	0xbf158a34	-0.58414006
24	0x3f30c314	0.69047666
25	0xbebdd592	-0.37077004
26	0xbf239bbd	-0.6390951
27	0x3f000ee4	0.5002272
28	0xbf197e0c	-0.5995796
29	0x3f0248ed	0.50892526
30	0xbf745e62	-0.95456517
31	0xbf965a74	-1.1746354
32	0x3f7eba6e	0.9950322
33	0x3f5bd0dd	0.85865575
34	0xbf924f0a	-1.1430371
35	0xbf1b3d6d	-0.60640603
36	0x3f3d313e	0.7390326
37	0x3f191ceb	0.5980975
38	0x3f220222	0.63284504
39	0xbfd0d710	-1.6315632
40	0xc00d6618	-2.2093563
41	0xbe2c221a	-0.16809884
42	0xbede88b3	-0.43463668
43	0x3f3d69f6	0.7398981
44	0xbef4d353	-0.47817478
45	0xbfcac5d3	-1.5841621
46	0xbf886b00	-1.0657654
47	0xbf0e6e7b	-0.5563733
48	0x3e085ab9	0.13315858
49	0x3f684773	0.9073402
50	0x3f9af837	1.2106999
51	0xbcbef56e	-0.02331039
52	0xbf719699	-0.9437042
53	0xbf9c4460	-1.2208366
54	0x3e13d439	0.14436425
55	0x3f0ad5f0	0.5423269
56	0x3d2a994f	0.041650113
57	0xbf6e6de9	-0.9313646
58	0xbfd9b0da	-1.7007096
59	0xbed61e6e	-0.4182009
60	0x3e8d3c06	0.27584857
61	0x3e3a364c	0.18184775
62	0xbf520d25	-0.82051307
63	0xbf96224d	-1.1729218
64	0xbd210cb4	-0.039318755
65	0x3ea7071b	0.3262261
66	0x3f980256	1.1875713
67	0xbf349a95	-0.70548373
68	0xbfbac2b3	-1.4590667
69	0xbe1cf88d	-0.1532919
